…
keras provides a variety of predefined optimizers, loss functions and 
metrics, the choice of them depends on the specific problems and 
the characteristics of the data. In this example we choose adam as 
the optimizer, categorical_crossentropy as the loss function and accuracy 
as the metrics. See https://keras.io/api/optimizers/ for details.
The structure of cnn_model can be displayed by summary() function:
41
cnn_model.summary()
It’s displayed like below:
Model: "sequential"
Layer (type)                   Output Shape        Param #   
====================================================
======
conv2d (Conv2D)               (None, 32, 32, 128)     3584      
max_pooling2d (MaxPooling2D)  (None, 16, 16, 128)        0         
conv2d_1 (Conv2D)             (None, 16, 16, 64)     73792     
max_pooling2d_1 (MaxPooling2D)(None, 8, 8, 64)           0         
dropout (Dropout)             (None, 8, 8, 64)           0         
conv2d_2 (Conv2D)             (None, 8, 8, 32)       18464     
max_pooling2d_2 (MaxPooling2D)(None, 4, 4, 32)           0         

dropout_1 (Dropout)           (None, 4, 4, 32)           0         
flatten (Flatten)             (None, 512)                0         
dense (Dense)                 (None, 256)           131328    
dropout_2 (Dropout)           (None, 256)                0         
dense_1 (Dense)               (None, 128)            32896     
dropout_3 (Dropout)           (None, 128)                0         
dense_2 (Dense)               (None, 10)              1290      
====================================================
======
Total params: 261,354
Trainable params: 261,354
Non-trainable params: 0
Each layer is shown in one line in the summary above. The first 
line is the convolution layer with the name of conv2d and the type of 
Conv2D, where the name is unique in the model. The output size of 
this layer is (32,32,128), because the number of kernels is specified 
…
