…
# Add a max pooling layer
model.add(layers.MaxPooling2D((2, 2), name='MaxPool_layer_2'))
 
# Flatten the tensor output by the convolutional layers
model.add(layers.Flatten(name='Flatten_layer'))
 
# Add a dense layer
model.add(layers.Dense(64, activation='relu', name='Dense_layer'))
 
# Add the output layer
model.add(layers.Dense(10, activation='softmax', name='Output_layer'))
 
# Print the model summary
model.summary()
 
Model: "sequential"
Layer (type)                   Output Shape              Param #   
=================================================================
Conv_layer_1 (Conv2D)          (None, 26, 26, 32)        320       
_________________________________________________________________
MaxPool_layer_1 (MaxPooling2   (None, 13, 13, 32)        0         
_________________________________________________________________
Conv_layer_2 (Conv2D)          (None, 11, 11, 64)        18496     
_________________________________________________________________
MaxPool_layer_2 (MaxPooling2   (None, 5, 5, 64)          0         
_________________________________________________________________
Flatten_layer (Flatten)        (None, 1600)              0         
_________________________________________________________________
Dense_layer (Dense)            (None, 64)                102464    
_________________________________________________________________
Output_layer (Dense)           (None, 10)                650       
=================================================================
Total params: 121,930
Trainable params: 121,930
Non-trainable params: 0
 

116
Generative Adversarial Networks in Practice
4.7.3  Train the Model
The model is now compiled and ready to be trained. The process of training the model 
involves providing it with the training data and allowing it to adjust its internal param­
eters to better predict the classes of the training data.
…
in the MNIST dataset). The activation function used is softmax, which 
produces a probability distribution over the classes, indicating the 
likelihood of each class for a given input.
keras.layers.Dense(10, activation='softmax') 
5.4.4.1.5  Model Summary
For providing a high-level overview of the network architecture, a model summary is a 
good practice.
# Check the model summary for more information about the architecture and 
its parameters.
model.summary()
Model: "sequential"
Layer (type)                 Output Shape              Param #
=================================================================
flatten_4 (Flatten)          (None, 784)               0         
_________________________________________________________________
dense_12 (Dense)             (None, 128)               100480    
_________________________________________________________________
dropout_5 (Dropout)          (None, 128)               0         
_________________________________________________________________
dense_13 (Dense)             (None, 32)                4128      
_________________________________________________________________
dropout_6 (Dropout)          (None, 32)                0         
_________________________________________________________________
dense_14 (Dense)             (None, 10)                330       
=================================================================
Total params: 104,938
Trainable params: 104,938
Non-trainable params: 0 
5.4.4.1.6  Compile the Model
The model in Keras can be run by defining its parameters, such as the metric value and 
optimizer type. By compiling the model with the specified loss function, metrics, and opti­
mizer, the model is now ready to be trained and evaluated on the MNIST dataset.
…
        layers.Conv2D(64, kernel_size=4, strides=2, padding="same"),
        layers.LeakyReLU(alpha=0.2),
        layers.Conv2D(128, kernel_size=4, strides=2, padding="same"),
        layers.LeakyReLU(alpha=0.2),
        layers.Conv2D(128, kernel_size=4, strides=2, padding="same"),
        layers.LeakyReLU(alpha=0.2),
        layers.Flatten(),
        layers.Dropout(0.2),
        layers.Dense(1, activation="sigmoid"),
    ],
    name="discriminator",
)
discriminator.summary()
Model: "discriminator"
Layer (type)                Output Shape              Param #   
=================================================================
conv2d (Conv2D)             (None, 32, 32, 64)        3136      
leaky_re_lu (LeakyReLU)     (None, 32, 32, 64)        0         
conv2d_1 (Conv2D)           (None, 16, 16, 128)       131200    
leaky_re_lu_1 (LeakyReLU)   (None, 16, 16, 128)       0         
conv2d_2 (Conv2D)           (None, 8, 8, 128)         262272    
leaky_re_lu_2 (LeakyReLU)   (None, 8, 8, 128)         0         
flatten (Flatten)           (None, 8192)              0         
dropout (Dropout)           (None, 8192)              0         
dense (Dense)               (None, 1)                 8193      
=================================================================
Total params: 404,801
Trainable params: 404,801
Non-trainable params: 0 
FIGURE 8.7
CelebA dataset data sample.

231
Deep Convolutional GANs (DCGANs)
Here’s an explanation of each line:
#This line creates a Sequential model object named "discriminator" using 
`keras.Sequential()`. The model will consist of a sequence of layers 
…
        layers.LeakyReLU(alpha=0.2),
        layers.Conv2DTranspose(256, kernel_size=4, strides=2, 
padding="same"),
        layers.LeakyReLU(alpha=0.2),
        layers.Conv2DTranspose(512, kernel_size=4, strides=2, 
padding="same"),
        layers.LeakyReLU(alpha=0.2),
        layers.Conv2D(3, kernel_size=5, padding="same", 
activation="sigmoid"),
    ],
    name="generator",)
generator.summary()
 
Model: "generator"
Layer (type)                              Output Shape            Param #  
========================================================================
dense_1 (Dense)                          (None, 8192)            1056768   
reshape (Reshape)                        (None, 8, 8, 128)       0         
conv2d_transpose (Conv2DTranspose)       (None, 16, 16, 128)     262272  
leaky_re_lu_3 (LeakyReLU)                (None, 16, 16, 128)     0         
conv2d_transpose_1 (Conv2Dtranspose)     (None, 32, 32, 256)     524544    
leaky_re_lu_4 (LeakyReLU)                (None, 32, 32, 256)     0         
conv2d_transpose_2 (Conv2DTranspose)     (None, 64, 64, 512)     2097664 
leaky_re_lu_5 (LeakyReLU)                (None, 64, 64, 512)     0         
conv2d_3 (Conv2D)                        (None, 64, 64, 3)       38403     
========================================================================
Total params: 3,979,651
Trainable params: 3,979,651
Non-trainable params: 0
Here’s an explanation of each line:
#This line sets the dimensionality of the latent space, which is the 
input to the generator model. In this case, the latent space has a 
dimensionality of 128.
latent_dim = 128
 
#This line creates a Sequential model object named "generator" using 
…
activation='relu')(hidden2))
    output = Dense(784, activation='tanh')(hidden3)
    reshaped_output = Reshape((28, 28, 1))(output)
    gen_model = Model(input_gen, reshaped_output)
    gen_model.compile(loss='binary_crossentropy', optimizer=optimizer)
    return gen_model
generator_model = generator()
generator_model.summary()
Model: "model"
Layer (type)                                Output Shape         Param # 
=========================================================================
input_1 (InputLayer)                        [(None, 100)]        0
dense (Dense)                                (None, 256)         25856
batch_normalization (BatchNormalization)     (None, 256)         1024
dense_1 (Dense)                              (None, 512)         131584
batch_normalization_1 (BatchNormalization)   (None, 512)         2048
dense_2 (Dense)                              (None, 1024)        525312
batch_normalization_2 (BatchNormalization)   (None, 1024)        4096
dense_3 (Dense)                              (None, 784)         803600
reshape (Reshape)                            (None, 28, 28, 1)   0
=========================================================================
Total params: 1,493,520
Trainable params: 1,489,936
Non-trainable params: 3,584

348
Generative Adversarial Networks in Practice
Here’s a breakdown of each line of code in the function:
#This line defines an input layer for the generator network with the same 
shape as the noise vector. The `shape` argument specifies the dimensions 
…
generator.add(BatchNormalization(momentum=0.8))   
# Add a final dense layer with the flattened image as output and a tanh 
activation function
generator.add(Dense(img_dim, activation='tanh'))    
This generates a summary representation of your model. It is helpful to see the network 
structure and the values of the total, trainable, and non-trainable parameters.
generator.summary()
Model: "sequential"
Layer (type)                                    Output Shape     Param #
=========================================================================
dense (Dense)                                   (None, 128)      12928
leaky_re_lu (LeakyReLU)                         (None, 128)      0
batch_normalization (Batch Normalization)       (None, 128)      512
dense_1 (Dense)                                 (None, 256)      33024
leaky_re_lu_1 (LeakyReLU)                       (None, 256)      0
batch_normalization_1(Batch   normalization)    (None, 256)      1024
dense_2 (Dense)                                 (None, 512)      131584
leaky_re_lu_2 (LeakyReLU)                       (None, 512)      0 
batch_normalization_2 (Batch normalization)     (None, 512)      2048
dense_3 (Dense)                                 (None, 784)      402192
=========================================================================
Total params: 583,312
Trainable params: 581,520
Non-trainable params: 1,792
12.4.5  Discriminator
As previously discussed, the discriminator is simpler than the generator. These lines 
define the architecture for the discriminator model in the cGAN. The discriminator model 

383
Least Squares GANs (LSGAN)
consists of a series of dense layers with leaky ReLU activation functions. The final layer 
…
discriminator.add(Dense(512))  
# Add another LeakyReLU activation function with a slope of 0.2                
discriminator.add(LeakyReLU(alpha=0.2))   
# Add a final dense layer with a single neuron (outputting a scalar value 
for the binary classification)     
discriminator.add(Dense(1))   
Make a summary of the model to see the discriminator model structure and the number 
of parameters.
discriminator.summary()
Model: "sequential_1"
Layer (type)                       Output Shape          Param #   
=================================================================
dense_4 (Dense)                    (None, 128)           100480    
leaky_re_lu_3 (LeakyReLU)          (None, 128)           0         
dense_5 (Dense)                    (None, 256)           33024     
leaky_re_lu_4 (LeakyReLU)          (None, 256)           0         
dense_6 (Dense)                    (None, 512)           131584    
leaky_re_lu_5 (LeakyReLU)          (None, 512)           0         
dense_7 (Dense)                    (None, 1)             513       
=================================================================
Total params: 265,601
Trainable params: 265,601
Non-trainable params: 0 
12.4.6  Compile Discriminator
These lines define and compile the discriminator model. The optimizer parameter is set 
to an instance of the Adam optimizer with a learning rate of 0.0002 and a beta_1 value of 
0.5. The compile() function is used to specify the optimizer, loss function, and evaluation 
…
    x = layers.Dropout(0.2)(x)
 
# define the dense layer
    x = layers.Dense(1)(x)
 
# define the model
    d_model1 = keras.models.Model(img_input, x, name="discriminator1")
    return d_model1
 
# define the discriminator model
d_model1 = get_discriminator1_model()
 
# Show the model summary
d_model1.summary()
Model: "discriminator1"

418
Generative Adversarial Networks in Practice
Layers (type)                    Outputs Shape            Params #
====================================================================
input_11  (InputLayer)           [(None, 28, 28, 1)]       0
zero_padding2d1(ZeroPadding 2D)  (None, 32, 32, 1)         0
conv2d (Conv2D)                  (None, 16, 16, 64)        1664
leaky_re_lu (LeakyReLU)          (None, 16, 16, 64)        0
conv2d_1 (Conv2D)                (None, 8, 8, 128)         204928
leaky_re_lu_1 (LeakyReLU)        (None, 8, 8, 128)         0
dropout (Dropout)                (None, 8, 8, 128)         0
conv2d_2 (Conv2D)                (None, 4, 4, 256)         819456
leaky_re_lu_2 (LeakyReLU)        (None, 4, 4, 256)         0
dropout_1 (Dropout)              (None, 4, 4, 256)         0
conv2d_3 (Conv2D)                (None, 2, 2, 512)         3277312
leaky_re_lu_3 (LeakyReLU)        (None, 2, 2, 512)         0
 
flatten (Flatten)                (None, 2048)              0
dropout_2 (Dropout)              (None, 2048)              0
dense (Dense)                    (None, 1)                 2049
====================================================================
Total params: 4,305,409
Trainable params: 4,305,409
Non-trainable params: 0
 
 
#This function defines a convolutional block that will be used in the 
discriminator model. The `x` argument is the input tensor, `filters` is 
the number of filters in the convolutional layer, `activation` is the 
activation function used, `kernel_size1` is the size of the convolutional 
…
        use_bn=True, padding="same",use_dropout1=False,    )
    x = upsample_block1(x, 1, layers.Activation("tanh"), strides1=(1, 1), 
use_bias1=False, use_bn=True)
    x = layers.Cropping2D((2, 2))(x)
    g_model1 = keras.models.Model(noise1, x, name="generator1")
    return g_model1
g_model1 = get_generator1_model()
g_model1.summary()
 
Model: "generator1"
Layer (type)                                Output Shape         Param #   
=========================================================================
input_21 (InputLayer)                       [(None, 128)]        0
dense_11 (Dense)                            (None, 4096)         524288
batch_normalization (BatchN normalization)  (None, 4096)         16384
leaky_re_lu_41 (LeakyReLU)                  (None, 4096)         0
reshape (Reshape)                           (None, 4, 4, 256)    0
up_sampling2d (UpSampling2D)                (None, 8, 8, 256)    0
conv2d_41 (Conv2D)                          (None, 8, 8, 128)    294912
batch_normalization_1(Batch Normalization)  (None, 8, 8, 128)    512
leaky_re_lu_51 (LeakyReLU)                  (None, 8, 8, 128)    0
up_sampling2d_11 (UpSampling 2D)            (None, 16, 16, 128)  0
conv2d_51 (Conv2D)                          (None, 16, 16, 64)   73728
batch_normalization_21(Batch Normalization) (None, 16, 16, 64)   256
leaky_re_lu_61 (LeakyReLU)                  (None, 16, 16, 64)   0
up_sampling2d_21 (UpSampling 2D)            (None, 32, 32, 64)   0
conv2d_61 (Conv2D)                          (None, 32, 32, 1)    576
batch_normalization_31(Batch Normalization) (None, 32, 32, 1)    4
activation (Activation)                     (None, 32, 32, 1)    0
cropping2d (Cropping2D)                     (None, 28, 28, 1)    0
=========================================================================
Total params: 910,660
Trainable params: 902,082
Non-trainable params: 8,578
#This function defines a block that upsamples an input tensor `x` using 
`UpSampling2D` and applies convolution using `Conv2D` with the given 
`filters`, `kernel_size1`, `strides1`, and `padding`. If `use_bn` is 
`True`, then batch normalization is applied. If `activation` is given, 
…
